…
input_2 (InputLayer)            [(None, 60, 40, 7, 1 0
__________________________________________________________________________________________________
input_3 (InputLayer)            [(None, 60, 40, 7, 1 0
__________________________________________________________________________________________________
input_4 (InputLayer)            [(None, 60, 40, 6, 1 0
__________________________________________________________________________________________________
input_5 (InputLayer)            [(None, 60, 40, 6, 1 0
__________________________________________________________________________________________________
conv3d (Conv3D)                 (None, 54, 34, 5, 1) 148         input_1[0][0]
__________________________________________________________________________________________________
conv3d_1 (Conv3D)               (None, 54, 34, 5, 1) 148         input_1[0][0]
__________________________________________________________________________________________________
conv3d_14 (Conv3D)              (None, 54, 34, 5, 1) 148         input_2[0][0]
__________________________________________________________________________________________________
conv3d_15 (Conv3D)              (None, 54, 34, 5, 1) 148         input_2[0][0]
__________________________________________________________________________________________________
conv3d_28 (Conv3D)              (None, 54, 34, 5, 1) 148         input_3[0][0]
__________________________________________________________________________________________________
conv3d_29 (Conv3D)              (None, 54, 34, 5, 1) 148         input_3[0][0]
__________________________________________________________________________________________________
conv3d_42 (Conv3D)              (None, 54, 34, 4, 1) 148         input_4[0][0]
__________________________________________________________________________________________________
conv3d_43 (Conv3D)              (None, 54, 34, 4, 1) 148         input_4[0][0]
__________________________________________________________________________________________________
conv3d_56 (Conv3D)              (None, 54, 34, 4, 1) 148         input_5[0][0]
__________________________________________________________________________________________________
conv3d_57 (Conv3D)              (None, 54, 34, 4, 1) 148         input_5[0][0]
__________________________________________________________________________________________________
conv3d_70 (Conv3D)              (None, 54, 34, 5, 1) 148         input_1[0][0]
__________________________________________________________________________________________________
conv3d_71 (Conv3D)              (None, 54, 34, 5, 1) 148         input_1[0][0]
__________________________________________________________________________________________________
conv3d_84 (Conv3D)              (None, 54, 34, 5, 1) 148         input_2[0][0]
__________________________________________________________________________________________________
conv3d_85 (Conv3D)              (None, 54, 34, 5, 1) 148         input_2[0][0]
__________________________________________________________________________________________________
conv3d_98 (Conv3D)              (None, 54, 34, 5, 1) 148         input_3[0][0]
__________________________________________________________________________________________________
conv3d_99 (Conv3D)              (None, 54, 34, 5, 1) 148         input_3[0][0]
__________________________________________________________________________________________________
conv3d_112 (Conv3D)             (None, 54, 34, 4, 1) 148         input_4[0][0]
__________________________________________________________________________________________________
conv3d_113 (Conv3D)             (None, 54, 34, 4, 1) 148         input_4[0][0]
__________________________________________________________________________________________________
conv3d_126 (Conv3D)             (None, 54, 34, 4, 1) 148         input_5[0][0]
__________________________________________________________________________________________________
conv3d_127 (Conv3D)             (None, 54, 34, 4, 1) 148         input_5[0][0]
__________________________________________________________________________________________________
average_pooling3d (AveragePooli (None, 27, 17, 5, 1) 0           conv3d[0][0]
__________________________________________________________________________________________________
average_pooling3d_1 (AveragePoo (None, 27, 17, 5, 1) 0           conv3d_1[0][0]
__________________________________________________________________________________________________
average_pooling3d_8 (AveragePoo (None, 27, 17, 5, 1) 0           conv3d_14[0][0]
__________________________________________________________________________________________________
average_pooling3d_9 (AveragePoo (None, 27, 17, 5, 1) 0           conv3d_15[0][0]
__________________________________________________________________________________________________
average_pooling3d_16 (AveragePo (None, 27, 17, 5, 1) 0           conv3d_28[0][0]
__________________________________________________________________________________________________
average_pooling3d_17 (AveragePo (None, 27, 17, 5, 1) 0           conv3d_29[0][0]
__________________________________________________________________________________________________
average_pooling3d_24 (AveragePo (None, 27, 17, 4, 1) 0           conv3d_42[0][0]
__________________________________________________________________________________________________
average_pooling3d_25 (AveragePo (None, 27, 17, 4, 1) 0           conv3d_43[0][0]
__________________________________________________________________________________________________
average_pooling3d_32 (AveragePo (None, 27, 17, 4, 1) 0           conv3d_56[0][0]
__________________________________________________________________________________________________
average_pooling3d_33 (AveragePo (None, 27, 17, 4, 1) 0           conv3d_57[0][0]
__________________________________________________________________________________________________
average_pooling3d_40 (AveragePo (None, 27, 17, 5, 1) 0           conv3d_70[0][0]
__________________________________________________________________________________________________
average_pooling3d_41 (AveragePo (None, 27, 17, 5, 1) 0           conv3d_71[0][0]
__________________________________________________________________________________________________
average_pooling3d_48 (AveragePo (None, 27, 17, 5, 1) 0           conv3d_84[0][0]
__________________________________________________________________________________________________
average_pooling3d_49 (AveragePo (None, 27, 17, 5, 1) 0           conv3d_85[0][0]
__________________________________________________________________________________________________
average_pooling3d_56 (AveragePo (None, 27, 17, 5, 1) 0           conv3d_98[0][0]
__________________________________________________________________________________________________
average_pooling3d_57 (AveragePo (None, 27, 17, 5, 1) 0           conv3d_99[0][0]
__________________________________________________________________________________________________
average_pooling3d_64 (AveragePo (None, 27, 17, 4, 1) 0           conv3d_112[0][0]
__________________________________________________________________________________________________
average_pooling3d_65 (AveragePo (None, 27, 17, 4, 1) 0           conv3d_113[0][0]
__________________________________________________________________________________________________
average_pooling3d_72 (AveragePo (None, 27, 17, 4, 1) 0           conv3d_126[0][0]
__________________________________________________________________________________________________
average_pooling3d_73 (AveragePo (None, 27, 17, 4, 1) 0           conv3d_127[0][0]
__________________________________________________________________________________________________
conv3d_2 (Conv3D)               (None, 21, 12, 3, 1) 127         average_pooling3d[0][0]
__________________________________________________________________________________________________
conv3d_3 (Conv3D)               (None, 21, 12, 3, 1) 127         average_pooling3d[0][0]
__________________________________________________________________________________________________
conv3d_4 (Conv3D)               (None, 21, 12, 3, 1) 127         average_pooling3d[0][0]
__________________________________________________________________________________________________
conv3d_8 (Conv3D)               (None, 21, 12, 3, 1) 127         average_pooling3d_1[0][0]
__________________________________________________________________________________________________
conv3d_9 (Conv3D)               (None, 21, 12, 3, 1) 127         average_pooling3d_1[0][0]
__________________________________________________________________________________________________
conv3d_10 (Conv3D)              (None, 21, 12, 3, 1) 127         average_pooling3d_1[0][0]
__________________________________________________________________________________________________
conv3d_16 (Conv3D)              (None, 21, 12, 3, 1) 127         average_pooling3d_8[0][0]
__________________________________________________________________________________________________
conv3d_17 (Conv3D)              (None, 21, 12, 3, 1) 127         average_pooling3d_8[0][0]
__________________________________________________________________________________________________
conv3d_18 (Conv3D)              (None, 21, 12, 3, 1) 127         average_pooling3d_8[0][0]
__________________________________________________________________________________________________
conv3d_22 (Conv3D)              (None, 21, 12, 3, 1) 127         average_pooling3d_9[0][0]
__________________________________________________________________________________________________
conv3d_23 (Conv3D)              (None, 21, 12, 3, 1) 127         average_pooling3d_9[0][0]
__________________________________________________________________________________________________
conv3d_24 (Conv3D)              (None, 21, 12, 3, 1) 127         average_pooling3d_9[0][0]
__________________________________________________________________________________________________
conv3d_30 (Conv3D)              (None, 21, 12, 3, 1) 127         average_pooling3d_16[0][0]
__________________________________________________________________________________________________
conv3d_31 (Conv3D)              (None, 21, 12, 3, 1) 127         average_pooling3d_16[0][0]
__________________________________________________________________________________________________
conv3d_32 (Conv3D)              (None, 21, 12, 3, 1) 127         average_pooling3d_16[0][0]
__________________________________________________________________________________________________
conv3d_36 (Conv3D)              (None, 21, 12, 3, 1) 127         average_pooling3d_17[0][0]
__________________________________________________________________________________________________
conv3d_37 (Conv3D)              (None, 21, 12, 3, 1) 127         average_pooling3d_17[0][0]
__________________________________________________________________________________________________
conv3d_38 (Conv3D)              (None, 21, 12, 3, 1) 127         average_pooling3d_17[0][0]
__________________________________________________________________________________________________
conv3d_44 (Conv3D)              (None, 21, 12, 2, 1) 127         average_pooling3d_24[0][0]
__________________________________________________________________________________________________
conv3d_45 (Conv3D)              (None, 21, 12, 2, 1) 127         average_pooling3d_24[0][0]
__________________________________________________________________________________________________
conv3d_46 (Conv3D)              (None, 21, 12, 2, 1) 127         average_pooling3d_24[0][0]
__________________________________________________________________________________________________
conv3d_50 (Conv3D)              (None, 21, 12, 2, 1) 127         average_pooling3d_25[0][0]
__________________________________________________________________________________________________
conv3d_51 (Conv3D)              (None, 21, 12, 2, 1) 127         average_pooling3d_25[0][0]
__________________________________________________________________________________________________
conv3d_52 (Conv3D)              (None, 21, 12, 2, 1) 127         average_pooling3d_25[0][0]
__________________________________________________________________________________________________
conv3d_58 (Conv3D)              (None, 21, 12, 2, 1) 127         average_pooling3d_32[0][0]
__________________________________________________________________________________________________
conv3d_59 (Conv3D)              (None, 21, 12, 2, 1) 127         average_pooling3d_32[0][0]
__________________________________________________________________________________________________
conv3d_60 (Conv3D)              (None, 21, 12, 2, 1) 127         average_pooling3d_32[0][0]
__________________________________________________________________________________________________
conv3d_64 (Conv3D)              (None, 21, 12, 2, 1) 127         average_pooling3d_33[0][0]
__________________________________________________________________________________________________
conv3d_65 (Conv3D)              (None, 21, 12, 2, 1) 127         average_pooling3d_33[0][0]
__________________________________________________________________________________________________
conv3d_66 (Conv3D)              (None, 21, 12, 2, 1) 127         average_pooling3d_33[0][0]
__________________________________________________________________________________________________
conv3d_72 (Conv3D)              (None, 21, 12, 3, 1) 127         average_pooling3d_40[0][0]
__________________________________________________________________________________________________
conv3d_73 (Conv3D)              (None, 21, 12, 3, 1) 127         average_pooling3d_40[0][0]
__________________________________________________________________________________________________
conv3d_74 (Conv3D)              (None, 21, 12, 3, 1) 127         average_pooling3d_40[0][0]
__________________________________________________________________________________________________
conv3d_78 (Conv3D)              (None, 21, 12, 3, 1) 127         average_pooling3d_41[0][0]
__________________________________________________________________________________________________
conv3d_79 (Conv3D)              (None, 21, 12, 3, 1) 127         average_pooling3d_41[0][0]
__________________________________________________________________________________________________
conv3d_80 (Conv3D)              (None, 21, 12, 3, 1) 127         average_pooling3d_41[0][0]
__________________________________________________________________________________________________
conv3d_86 (Conv3D)              (None, 21, 12, 3, 1) 127         average_pooling3d_48[0][0]
__________________________________________________________________________________________________
conv3d_87 (Conv3D)              (None, 21, 12, 3, 1) 127         average_pooling3d_48[0][0]
__________________________________________________________________________________________________
conv3d_88 (Conv3D)              (None, 21, 12, 3, 1) 127         average_pooling3d_48[0][0]
__________________________________________________________________________________________________
conv3d_92 (Conv3D)              (None, 21, 12, 3, 1) 127         average_pooling3d_49[0][0]
__________________________________________________________________________________________________
conv3d_93 (Conv3D)              (None, 21, 12, 3, 1) 127         average_pooling3d_49[0][0]
__________________________________________________________________________________________________
conv3d_94 (Conv3D)              (None, 21, 12, 3, 1) 127         average_pooling3d_49[0][0]
__________________________________________________________________________________________________
conv3d_100 (Conv3D)             (None, 21, 12, 3, 1) 127         average_pooling3d_56[0][0]
__________________________________________________________________________________________________
conv3d_101 (Conv3D)             (None, 21, 12, 3, 1) 127         average_pooling3d_56[0][0]
__________________________________________________________________________________________________
conv3d_102 (Conv3D)             (None, 21, 12, 3, 1) 127         average_pooling3d_56[0][0]
__________________________________________________________________________________________________
conv3d_106 (Conv3D)             (None, 21, 12, 3, 1) 127         average_pooling3d_57[0][0]
__________________________________________________________________________________________________
conv3d_107 (Conv3D)             (None, 21, 12, 3, 1) 127         average_pooling3d_57[0][0]
__________________________________________________________________________________________________
conv3d_108 (Conv3D)             (None, 21, 12, 3, 1) 127         average_pooling3d_57[0][0]
__________________________________________________________________________________________________
conv3d_114 (Conv3D)             (None, 21, 12, 2, 1) 127         average_pooling3d_64[0][0]
__________________________________________________________________________________________________
conv3d_115 (Conv3D)             (None, 21, 12, 2, 1) 127         average_pooling3d_64[0][0]
__________________________________________________________________________________________________
conv3d_116 (Conv3D)             (None, 21, 12, 2, 1) 127         average_pooling3d_64[0][0]
__________________________________________________________________________________________________
conv3d_120 (Conv3D)             (None, 21, 12, 2, 1) 127         average_pooling3d_65[0][0]
__________________________________________________________________________________________________
conv3d_121 (Conv3D)             (None, 21, 12, 2, 1) 127         average_pooling3d_65[0][0]
__________________________________________________________________________________________________
conv3d_122 (Conv3D)             (None, 21, 12, 2, 1) 127         average_pooling3d_65[0][0]
__________________________________________________________________________________________________
conv3d_128 (Conv3D)             (None, 21, 12, 2, 1) 127         average_pooling3d_72[0][0]
__________________________________________________________________________________________________
conv3d_129 (Conv3D)             (None, 21, 12, 2, 1) 127         average_pooling3d_72[0][0]
__________________________________________________________________________________________________
conv3d_130 (Conv3D)             (None, 21, 12, 2, 1) 127         average_pooling3d_72[0][0]
__________________________________________________________________________________________________
conv3d_134 (Conv3D)             (None, 21, 12, 2, 1) 127         average_pooling3d_73[0][0]
__________________________________________________________________________________________________
conv3d_135 (Conv3D)             (None, 21, 12, 2, 1) 127         average_pooling3d_73[0][0]
__________________________________________________________________________________________________
conv3d_136 (Conv3D)             (None, 21, 12, 2, 1) 127         average_pooling3d_73[0][0]
__________________________________________________________________________________________________
average_pooling3d_2 (AveragePoo (None, 7, 4, 3, 1)   0           conv3d_2[0][0]
__________________________________________________________________________________________________
average_pooling3d_3 (AveragePoo (None, 7, 4, 3, 1)   0           conv3d_3[0][0]
__________________________________________________________________________________________________
average_pooling3d_4 (AveragePoo (None, 7, 4, 3, 1)   0           conv3d_4[0][0]
__________________________________________________________________________________________________
average_pooling3d_5 (AveragePoo (None, 7, 4, 3, 1)   0           conv3d_8[0][0]
__________________________________________________________________________________________________
average_pooling3d_6 (AveragePoo (None, 7, 4, 3, 1)   0           conv3d_9[0][0]
__________________________________________________________________________________________________
average_pooling3d_7 (AveragePoo (None, 7, 4, 3, 1)   0           conv3d_10[0][0]
__________________________________________________________________________________________________
average_pooling3d_10 (AveragePo (None, 7, 4, 3, 1)   0           conv3d_16[0][0]
__________________________________________________________________________________________________
average_pooling3d_11 (AveragePo (None, 7, 4, 3, 1)   0           conv3d_17[0][0]
__________________________________________________________________________________________________
average_pooling3d_12 (AveragePo (None, 7, 4, 3, 1)   0           conv3d_18[0][0]
__________________________________________________________________________________________________
average_pooling3d_13 (AveragePo (None, 7, 4, 3, 1)   0           conv3d_22[0][0]
__________________________________________________________________________________________________
average_pooling3d_14 (AveragePo (None, 7, 4, 3, 1)   0           conv3d_23[0][0]
__________________________________________________________________________________________________
average_pooling3d_15 (AveragePo (None, 7, 4, 3, 1)   0           conv3d_24[0][0]
__________________________________________________________________________________________________
average_pooling3d_18 (AveragePo (None, 7, 4, 3, 1)   0           conv3d_30[0][0]
__________________________________________________________________________________________________
average_pooling3d_19 (AveragePo (None, 7, 4, 3, 1)   0           conv3d_31[0][0]
__________________________________________________________________________________________________
average_pooling3d_20 (AveragePo (None, 7, 4, 3, 1)   0           conv3d_32[0][0]
__________________________________________________________________________________________________
average_pooling3d_21 (AveragePo (None, 7, 4, 3, 1)   0           conv3d_36[0][0]
__________________________________________________________________________________________________
average_pooling3d_22 (AveragePo (None, 7, 4, 3, 1)   0           conv3d_37[0][0]
__________________________________________________________________________________________________
average_pooling3d_23 (AveragePo (None, 7, 4, 3, 1)   0           conv3d_38[0][0]
__________________________________________________________________________________________________
average_pooling3d_26 (AveragePo (None, 7, 4, 2, 1)   0           conv3d_44[0][0]
__________________________________________________________________________________________________
average_pooling3d_27 (AveragePo (None, 7, 4, 2, 1)   0           conv3d_45[0][0]
__________________________________________________________________________________________________
average_pooling3d_28 (AveragePo (None, 7, 4, 2, 1)   0           conv3d_46[0][0]
__________________________________________________________________________________________________
average_pooling3d_29 (AveragePo (None, 7, 4, 2, 1)   0           conv3d_50[0][0]
__________________________________________________________________________________________________
average_pooling3d_30 (AveragePo (None, 7, 4, 2, 1)   0           conv3d_51[0][0]
__________________________________________________________________________________________________
average_pooling3d_31 (AveragePo (None, 7, 4, 2, 1)   0           conv3d_52[0][0]
__________________________________________________________________________________________________
average_pooling3d_34 (AveragePo (None, 7, 4, 2, 1)   0           conv3d_58[0][0]
__________________________________________________________________________________________________
average_pooling3d_35 (AveragePo (None, 7, 4, 2, 1)   0           conv3d_59[0][0]
__________________________________________________________________________________________________
average_pooling3d_36 (AveragePo (None, 7, 4, 2, 1)   0           conv3d_60[0][0]
__________________________________________________________________________________________________
average_pooling3d_37 (AveragePo (None, 7, 4, 2, 1)   0           conv3d_64[0][0]
__________________________________________________________________________________________________
average_pooling3d_38 (AveragePo (None, 7, 4, 2, 1)   0           conv3d_65[0][0]
__________________________________________________________________________________________________
average_pooling3d_39 (AveragePo (None, 7, 4, 2, 1)   0           conv3d_66[0][0]
__________________________________________________________________________________________________
average_pooling3d_42 (AveragePo (None, 7, 4, 3, 1)   0           conv3d_72[0][0]
__________________________________________________________________________________________________
average_pooling3d_43 (AveragePo (None, 7, 4, 3, 1)   0           conv3d_73[0][0]
__________________________________________________________________________________________________
average_pooling3d_44 (AveragePo (None, 7, 4, 3, 1)   0           conv3d_74[0][0]
__________________________________________________________________________________________________
average_pooling3d_45 (AveragePo (None, 7, 4, 3, 1)   0           conv3d_78[0][0]
__________________________________________________________________________________________________
average_pooling3d_46 (AveragePo (None, 7, 4, 3, 1)   0           conv3d_79[0][0]
__________________________________________________________________________________________________
average_pooling3d_47 (AveragePo (None, 7, 4, 3, 1)   0           conv3d_80[0][0]
__________________________________________________________________________________________________
average_pooling3d_50 (AveragePo (None, 7, 4, 3, 1)   0           conv3d_86[0][0]
__________________________________________________________________________________________________
average_pooling3d_51 (AveragePo (None, 7, 4, 3, 1)   0           conv3d_87[0][0]
__________________________________________________________________________________________________
average_pooling3d_52 (AveragePo (None, 7, 4, 3, 1)   0           conv3d_88[0][0]
__________________________________________________________________________________________________
average_pooling3d_53 (AveragePo (None, 7, 4, 3, 1)   0           conv3d_92[0][0]
__________________________________________________________________________________________________
average_pooling3d_54 (AveragePo (None, 7, 4, 3, 1)   0           conv3d_93[0][0]
__________________________________________________________________________________________________
average_pooling3d_55 (AveragePo (None, 7, 4, 3, 1)   0           conv3d_94[0][0]
__________________________________________________________________________________________________
average_pooling3d_58 (AveragePo (None, 7, 4, 3, 1)   0           conv3d_100[0][0]
__________________________________________________________________________________________________
average_pooling3d_59 (AveragePo (None, 7, 4, 3, 1)   0           conv3d_101[0][0]
__________________________________________________________________________________________________
average_pooling3d_60 (AveragePo (None, 7, 4, 3, 1)   0           conv3d_102[0][0]
__________________________________________________________________________________________________
average_pooling3d_61 (AveragePo (None, 7, 4, 3, 1)   0           conv3d_106[0][0]
__________________________________________________________________________________________________
average_pooling3d_62 (AveragePo (None, 7, 4, 3, 1)   0           conv3d_107[0][0]
__________________________________________________________________________________________________
average_pooling3d_63 (AveragePo (None, 7, 4, 3, 1)   0           conv3d_108[0][0]
__________________________________________________________________________________________________
average_pooling3d_66 (AveragePo (None, 7, 4, 2, 1)   0           conv3d_114[0][0]
__________________________________________________________________________________________________
average_pooling3d_67 (AveragePo (None, 7, 4, 2, 1)   0           conv3d_115[0][0]
__________________________________________________________________________________________________
average_pooling3d_68 (AveragePo (None, 7, 4, 2, 1)   0           conv3d_116[0][0]
__________________________________________________________________________________________________
average_pooling3d_69 (AveragePo (None, 7, 4, 2, 1)   0           conv3d_120[0][0]
__________________________________________________________________________________________________
average_pooling3d_70 (AveragePo (None, 7, 4, 2, 1)   0           conv3d_121[0][0]
__________________________________________________________________________________________________
average_pooling3d_71 (AveragePo (None, 7, 4, 2, 1)   0           conv3d_122[0][0]
__________________________________________________________________________________________________
average_pooling3d_74 (AveragePo (None, 7, 4, 2, 1)   0           conv3d_128[0][0]
__________________________________________________________________________________________________
average_pooling3d_75 (AveragePo (None, 7, 4, 2, 1)   0           conv3d_129[0][0]
__________________________________________________________________________________________________
average_pooling3d_76 (AveragePo (None, 7, 4, 2, 1)   0           conv3d_130[0][0]
__________________________________________________________________________________________________
average_pooling3d_77 (AveragePo (None, 7, 4, 2, 1)   0           conv3d_134[0][0]
__________________________________________________________________________________________________
average_pooling3d_78 (AveragePo (None, 7, 4, 2, 1)   0           conv3d_135[0][0]
__________________________________________________________________________________________________
average_pooling3d_79 (AveragePo (None, 7, 4, 2, 1)   0           conv3d_136[0][0]
__________________________________________________________________________________________________
conv3d_5 (Conv3D)               (None, 1, 1, 3, 1)   29          average_pooling3d_2[0][0]
__________________________________________________________________________________________________
conv3d_6 (Conv3D)               (None, 1, 1, 3, 1)   29          average_pooling3d_3[0][0]
__________________________________________________________________________________________________
conv3d_7 (Conv3D)               (None, 1, 1, 3, 1)   29          average_pooling3d_4[0][0]
__________________________________________________________________________________________________
conv3d_11 (Conv3D)              (None, 1, 1, 3, 1)   29          average_pooling3d_5[0][0]
__________________________________________________________________________________________________
conv3d_12 (Conv3D)              (None, 1, 1, 3, 1)   29          average_pooling3d_6[0][0]
__________________________________________________________________________________________________
conv3d_13 (Conv3D)              (None, 1, 1, 3, 1)   29          average_pooling3d_7[0][0]
__________________________________________________________________________________________________
conv3d_19 (Conv3D)              (None, 1, 1, 3, 1)   29          average_pooling3d_10[0][0]
__________________________________________________________________________________________________
conv3d_20 (Conv3D)              (None, 1, 1, 3, 1)   29          average_pooling3d_11[0][0]
__________________________________________________________________________________________________
conv3d_21 (Conv3D)              (None, 1, 1, 3, 1)   29          average_pooling3d_12[0][0]
__________________________________________________________________________________________________
conv3d_25 (Conv3D)              (None, 1, 1, 3, 1)   29          average_pooling3d_13[0][0]
__________________________________________________________________________________________________
conv3d_26 (Conv3D)              (None, 1, 1, 3, 1)   29          average_pooling3d_14[0][0]
__________________________________________________________________________________________________
conv3d_27 (Conv3D)              (None, 1, 1, 3, 1)   29          average_pooling3d_15[0][0]
__________________________________________________________________________________________________
conv3d_33 (Conv3D)              (None, 1, 1, 3, 1)   29          average_pooling3d_18[0][0]
__________________________________________________________________________________________________
conv3d_34 (Conv3D)              (None, 1, 1, 3, 1)   29          average_pooling3d_19[0][0]
__________________________________________________________________________________________________
conv3d_35 (Conv3D)              (None, 1, 1, 3, 1)   29          average_pooling3d_20[0][0]
__________________________________________________________________________________________________
conv3d_39 (Conv3D)              (None, 1, 1, 3, 1)   29          average_pooling3d_21[0][0]
__________________________________________________________________________________________________
conv3d_40 (Conv3D)              (None, 1, 1, 3, 1)   29          average_pooling3d_22[0][0]
__________________________________________________________________________________________________
conv3d_41 (Conv3D)              (None, 1, 1, 3, 1)   29          average_pooling3d_23[0][0]
__________________________________________________________________________________________________
conv3d_47 (Conv3D)              (None, 1, 1, 2, 1)   29          average_pooling3d_26[0][0]
__________________________________________________________________________________________________
conv3d_48 (Conv3D)              (None, 1, 1, 2, 1)   29          average_pooling3d_27[0][0]
__________________________________________________________________________________________________
conv3d_49 (Conv3D)              (None, 1, 1, 2, 1)   29          average_pooling3d_28[0][0]
__________________________________________________________________________________________________
conv3d_53 (Conv3D)              (None, 1, 1, 2, 1)   29          average_pooling3d_29[0][0]
__________________________________________________________________________________________________
conv3d_54 (Conv3D)              (None, 1, 1, 2, 1)   29          average_pooling3d_30[0][0]
__________________________________________________________________________________________________
conv3d_55 (Conv3D)              (None, 1, 1, 2, 1)   29          average_pooling3d_31[0][0]
__________________________________________________________________________________________________
conv3d_61 (Conv3D)              (None, 1, 1, 2, 1)   29          average_pooling3d_34[0][0]
__________________________________________________________________________________________________
conv3d_62 (Conv3D)              (None, 1, 1, 2, 1)   29          average_pooling3d_35[0][0]
__________________________________________________________________________________________________
conv3d_63 (Conv3D)              (None, 1, 1, 2, 1)   29          average_pooling3d_36[0][0]
__________________________________________________________________________________________________
conv3d_67 (Conv3D)              (None, 1, 1, 2, 1)   29          average_pooling3d_37[0][0]
__________________________________________________________________________________________________
conv3d_68 (Conv3D)              (None, 1, 1, 2, 1)   29          average_pooling3d_38[0][0]
__________________________________________________________________________________________________
conv3d_69 (Conv3D)              (None, 1, 1, 2, 1)   29          average_pooling3d_39[0][0]
__________________________________________________________________________________________________
conv3d_75 (Conv3D)              (None, 1, 1, 3, 1)   29          average_pooling3d_42[0][0]
__________________________________________________________________________________________________
conv3d_76 (Conv3D)              (None, 1, 1, 3, 1)   29          average_pooling3d_43[0][0]
__________________________________________________________________________________________________
conv3d_77 (Conv3D)              (None, 1, 1, 3, 1)   29          average_pooling3d_44[0][0]
__________________________________________________________________________________________________
conv3d_81 (Conv3D)              (None, 1, 1, 3, 1)   29          average_pooling3d_45[0][0]
__________________________________________________________________________________________________
conv3d_82 (Conv3D)              (None, 1, 1, 3, 1)   29          average_pooling3d_46[0][0]
__________________________________________________________________________________________________
conv3d_83 (Conv3D)              (None, 1, 1, 3, 1)   29          average_pooling3d_47[0][0]
__________________________________________________________________________________________________
conv3d_89 (Conv3D)              (None, 1, 1, 3, 1)   29          average_pooling3d_50[0][0]
__________________________________________________________________________________________________
conv3d_90 (Conv3D)              (None, 1, 1, 3, 1)   29          average_pooling3d_51[0][0]
__________________________________________________________________________________________________
conv3d_91 (Conv3D)              (None, 1, 1, 3, 1)   29          average_pooling3d_52[0][0]
__________________________________________________________________________________________________
conv3d_95 (Conv3D)              (None, 1, 1, 3, 1)   29          average_pooling3d_53[0][0]
__________________________________________________________________________________________________
conv3d_96 (Conv3D)              (None, 1, 1, 3, 1)   29          average_pooling3d_54[0][0]
__________________________________________________________________________________________________
conv3d_97 (Conv3D)              (None, 1, 1, 3, 1)   29          average_pooling3d_55[0][0]
__________________________________________________________________________________________________
conv3d_103 (Conv3D)             (None, 1, 1, 3, 1)   29          average_pooling3d_58[0][0]
__________________________________________________________________________________________________
conv3d_104 (Conv3D)             (None, 1, 1, 3, 1)   29          average_pooling3d_59[0][0]
__________________________________________________________________________________________________
conv3d_105 (Conv3D)             (None, 1, 1, 3, 1)   29          average_pooling3d_60[0][0]
__________________________________________________________________________________________________
conv3d_109 (Conv3D)             (None, 1, 1, 3, 1)   29          average_pooling3d_61[0][0]
__________________________________________________________________________________________________
conv3d_110 (Conv3D)             (None, 1, 1, 3, 1)   29          average_pooling3d_62[0][0]
__________________________________________________________________________________________________
conv3d_111 (Conv3D)             (None, 1, 1, 3, 1)   29          average_pooling3d_63[0][0]
__________________________________________________________________________________________________
conv3d_117 (Conv3D)             (None, 1, 1, 2, 1)   29          average_pooling3d_66[0][0]
__________________________________________________________________________________________________
conv3d_118 (Conv3D)             (None, 1, 1, 2, 1)   29          average_pooling3d_67[0][0]
__________________________________________________________________________________________________
conv3d_119 (Conv3D)             (None, 1, 1, 2, 1)   29          average_pooling3d_68[0][0]
__________________________________________________________________________________________________
conv3d_123 (Conv3D)             (None, 1, 1, 2, 1)   29          average_pooling3d_69[0][0]
__________________________________________________________________________________________________
conv3d_124 (Conv3D)             (None, 1, 1, 2, 1)   29          average_pooling3d_70[0][0]
__________________________________________________________________________________________________
conv3d_125 (Conv3D)             (None, 1, 1, 2, 1)   29          average_pooling3d_71[0][0]
__________________________________________________________________________________________________
conv3d_131 (Conv3D)             (None, 1, 1, 2, 1)   29          average_pooling3d_74[0][0]
__________________________________________________________________________________________________
conv3d_132 (Conv3D)             (None, 1, 1, 2, 1)   29          average_pooling3d_75[0][0]
__________________________________________________________________________________________________
conv3d_133 (Conv3D)             (None, 1, 1, 2, 1)   29          average_pooling3d_76[0][0]
__________________________________________________________________________________________________
conv3d_137 (Conv3D)             (None, 1, 1, 2, 1)   29          average_pooling3d_77[0][0]
__________________________________________________________________________________________________
conv3d_138 (Conv3D)             (None, 1, 1, 2, 1)   29          average_pooling3d_78[0][0]
__________________________________________________________________________________________________
conv3d_139 (Conv3D)             (None, 1, 1, 2, 1)   29          average_pooling3d_79[0][0]
__________________________________________________________________________________________________
concatenate (Concatenate)       (None, 1, 1, 3, 6)   0           conv3d_5[0][0]
                                                                 conv3d_6[0][0]
                                                                 conv3d_7[0][0]
                                                                 conv3d_11[0][0]
                                                                 conv3d_12[0][0]
                                                                 conv3d_13[0][0]
__________________________________________________________________________________________________
concatenate_1 (Concatenate)     (None, 1, 1, 3, 6)   0           conv3d_19[0][0]
                                                                 conv3d_20[0][0]
                                                                 conv3d_21[0][0]
                                                                 conv3d_25[0][0]
                                                                 conv3d_26[0][0]
                                                                 conv3d_27[0][0]
__________________________________________________________________________________________________
concatenate_2 (Concatenate)     (None, 1, 1, 3, 6)   0           conv3d_33[0][0]
                                                                 conv3d_34[0][0]
                                                                 conv3d_35[0][0]
                                                                 conv3d_39[0][0]
                                                                 conv3d_40[0][0]
                                                                 conv3d_41[0][0]
__________________________________________________________________________________________________
concatenate_3 (Concatenate)     (None, 1, 1, 2, 6)   0           conv3d_47[0][0]
                                                                 conv3d_48[0][0]
                                                                 conv3d_49[0][0]
                                                                 conv3d_53[0][0]
                                                                 conv3d_54[0][0]
                                                                 conv3d_55[0][0]
__________________________________________________________________________________________________
concatenate_4 (Concatenate)     (None, 1, 1, 2, 6)   0           conv3d_61[0][0]
                                                                 conv3d_62[0][0]
                                                                 conv3d_63[0][0]
                                                                 conv3d_67[0][0]
                                                                 conv3d_68[0][0]
                                                                 conv3d_69[0][0]
__________________________________________________________________________________________________
concatenate_6 (Concatenate)     (None, 1, 1, 3, 6)   0           conv3d_75[0][0]
                                                                 conv3d_76[0][0]
                                                                 conv3d_77[0][0]
                                                                 conv3d_81[0][0]
                                                                 conv3d_82[0][0]
                                                                 conv3d_83[0][0]
__________________________________________________________________________________________________
concatenate_7 (Concatenate)     (None, 1, 1, 3, 6)   0           conv3d_89[0][0]
                                                                 conv3d_90[0][0]
                                                                 conv3d_91[0][0]
                                                                 conv3d_95[0][0]
                                                                 conv3d_96[0][0]
                                                                 conv3d_97[0][0]
__________________________________________________________________________________________________
concatenate_8 (Concatenate)     (None, 1, 1, 3, 6)   0           conv3d_103[0][0]
                                                                 conv3d_104[0][0]
                                                                 conv3d_105[0][0]
                                                                 conv3d_109[0][0]
                                                                 conv3d_110[0][0]
                                                                 conv3d_111[0][0]
__________________________________________________________________________________________________
concatenate_9 (Concatenate)     (None, 1, 1, 2, 6)   0           conv3d_117[0][0]
                                                                 conv3d_118[0][0]
                                                                 conv3d_119[0][0]
                                                                 conv3d_123[0][0]
                                                                 conv3d_124[0][0]
                                                                 conv3d_125[0][0]
__________________________________________________________________________________________________
concatenate_10 (Concatenate)    (None, 1, 1, 2, 6)   0           conv3d_131[0][0]
                                                                 conv3d_132[0][0]
                                                                 conv3d_133[0][0]
                                                                 conv3d_137[0][0]
                                                                 conv3d_138[0][0]
                                                                 conv3d_139[0][0]
__________________________________________________________________________________________________
flatten (Flatten)               (None, 18)           0           concatenate[0][0]
__________________________________________________________________________________________________
flatten_1 (Flatten)             (None, 18)           0           concatenate_1[0][0]
__________________________________________________________________________________________________
flatten_2 (Flatten)             (None, 18)           0           concatenate_2[0][0]
__________________________________________________________________________________________________
flatten_3 (Flatten)             (None, 12)           0           concatenate_3[0][0]
__________________________________________________________________________________________________
flatten_4 (Flatten)             (None, 12)           0           concatenate_4[0][0]
__________________________________________________________________________________________________
flatten_5 (Flatten)             (None, 18)           0           concatenate_6[0][0]
__________________________________________________________________________________________________
flatten_6 (Flatten)             (None, 18)           0           concatenate_7[0][0]
__________________________________________________________________________________________________
flatten_7 (Flatten)             (None, 18)           0           concatenate_8[0][0]
__________________________________________________________________________________________________
flatten_8 (Flatten)             (None, 12)           0           concatenate_9[0][0]
__________________________________________________________________________________________________
flatten_9 (Flatten)             (None, 12)           0           concatenate_10[0][0]
__________________________________________________________________________________________________
concatenate_5 (Concatenate)     (None, 78)           0           flatten[0][0]
                                                                 flatten_1[0][0]
                                                                 flatten_2[0][0]
                                                                 flatten_3[0][0]
                                                                 flatten_4[0][0]
__________________________________________________________________________________________________
concatenate_11 (Concatenate)    (None, 78)           0           flatten_5[0][0]
                                                                 flatten_6[0][0]
                                                                 flatten_7[0][0]
                                                                 flatten_8[0][0]
                                                                 flatten_9[0][0]
__________________________________________________________________________________________________
dense (Dense)                   (None, 128)          10112       concatenate_5[0][0]
__________________________________________________________________________________________________
dense_1 (Dense)                 (None, 128)          10112       concatenate_11[0][0]
__________________________________________________________________________________________________
height (Dense)                  (None, 1)            129         dense[0][0]
__________________________________________________________________________________________________
period (Dense)                  (None, 1)            129         dense_1[0][0]
==================================================================================================
Total params: 32,802
Trainable params: 32,802
Non-trainable params: 0
